data/net_parameter.pkl (torch_old, 1280 bytes, 5 tensors)

fc1.weight f4 [4, 2]
0	0x3eec58cb	0.46161494
1	0xbf1d8025	-0.6152366
2	0x3e8c9aff	0.27462003
3	0x3cff60cd	0.031174088
4	0x3f5be714	0.8589947
5	0xbe224e30	-0.15850139
6	0x3f0e5cf1	0.5561057
7	0x3f6ad322	0.91728413

fc1.bias f4 [4]
0	0xbea45450	-0.32095575
1	0x3ff65dad	1.9247338
2	0x3db6bb6c	0.08922467
3	0xbd670fbb	-0.056411486

fc2.weight f4 [8, 4]
0	0xbf0a480c	-0.54016185
1	0x3fb89350	1.4419956
2	0x3e7b91ac	0.24567288
3	0xbe0a43b9	-0.13502397
4	0x3eecfd00	0.46286774
5	0xbf65ab1d	-0.89714223
6	0x3e0d6db8	0.13811386
7	0x3f11271a	0.5670029
8	0xbdf47b75	-0.1193761
9	0x3ea566f0	0.32305098
10	0xbea5d7bd	-0.32391158
11	0xbd80db0b	-0.06291779
12	0x3e97dd63	0.29661092
13	0x3d412161	0.047150973
14	0x3e17226b	0.14759223
15	0x3e888b8d	0.2666897
16	0x3ee1072e	0.4395079
17	0xbe99bae7	-0.30025408
18	0x3f1b84a4	0.6074927
19	0x3eb266be	0.3484401
20	0xbeaeaf06	-0.34117907
21	0x3fbf855c	1.4962573
22	0xbe84b790	-0.25921297
23	0xbe8985f3	-0.26860008
24	0xbc9202e0	-0.017823637
25	0xbec6ea3a	-0.38850576
26	0x3e067fc4	0.13134676
27	0xbd9ef118	-0.07760829
28	0x3f2ea310	0.68217564
29	0xbf596408	-0.8491826
30	0x3ee921c3	0.4553357
31	0x3f33ece8	0.70283365

fc2.bias f4 [8]
0	0x3b71a9c2	0.0036874865
1	0x3f8f1a15	1.1179835
2	0xbf04da10	-0.51895237
3	0xbfb69d64	-1.4266782
4	0xbf91c68e	-1.1388719
5	0xbb0c4bec	-0.0021407558
6	0xbefde5b4	-0.49589312
7	0xbf854c9e	-1.0414007

fc3.weight f4 [1, 8]
0	0x3f9304d0	1.1485844
1	0xbf96db51	-1.178568
2	0x3e986b62	0.29769427
3	0xbf83bb99	-1.0291625
4	0xbf088357	-0.5332541
5	0x3fecb2bf	1.8492049
6	0x3eb3272d	0.34990826
7	0xbfc15f6c	-1.5107245
